models/multi-aligned_int8.onnx (onnx, 299072 bytes, 22 tensors)

cnn.conv.0.bias f4 [32]
0.03870326 0.031794336 0.18605545 0.04697096 0.09019957 -0.009248856 0.06344573 -0.0012951706
0.06626433 0.1437039 -0.011164138 0.14127381 0.08764954 0.18061978 0.11310163 0.015287204
0.04963524 -0.027461356 0.11804619 0.1358193 0.006133182 0.038867585 0.10378223 0.06669924
0.20153134 0.070010185 0.17344984 0.066746876 0.035409063 0.1313013 -0.006182437 0.20662817
00000000: 4f87 1e3d c73a 023d 5285 3e3e 9f64 403d
00000010: 8dba b83d 8488 17bc d6ef 813d b7c2 a9ba
00000020: 98b5 873d 1d27 133e cae9 36bc 15aa 103e
00000030: 9a81 b33d 64f4 383e d4a1 e73d 2e77 7a3c
00000040: 524e 4b3d a3f6 e0bc 33c2 f13d 3714 0b3e
00000050: dcf8 c83b 9e33 1f3d c78b d43d 9c99 883d
00000060: 3b5e 4e3e 8061 8f3d d69c 313e 96b2 883d
00000070: 1809 113d d973 063e 0a96 cabb 5696 533e

cnn.conv.4.bias f4 [64]
0.056876007 0.1692696 0.13378838 -0.4305762 0.46912938 -0.06439297 0.2329399 -0.07106331
0.16443151 0.13021287 0.11134371 0.006046473 0.16354498 0.46350068 0.61645144 0.018890107
-0.1368129 0.8686083 -0.03406626 0.04640098 0.07152745 0.24902947 0.32608268 -0.039411135
0.28500828 0.2546013 0.045896526 0.11204203 -0.20734894 0.042054817 0.3001739 1.0706313
0.24423875 0.042526864 0.68728 0.036741037 -0.017655136 0.032749258 0.036169603 0.115932174
0.33110982 -0.2970541 0.16685064 0.313237 0.22511256 0.0019617788 1.4881021 0.21418007
0.040518895 0.3587651 0.46605292 0.4040351 0.35442108 0.82740325 -0.23734252 0.38797265
0.105872974 0.25836325 0.29559803 0.38672814 0.07100266 0.10812783 0.101783425 0.15918186
00000000: d1f6 683d 0355 2d3e d2ff 083e 7c74 dcbe
00000010: ba31 f03e 76e0 83bd cc87 6e3e a489 91bd
00000020: bc60 283e 8656 053e 2c08 e43d 7e21 c63b
00000030: 5678 273e f64f ed3e c3cf 1d3f 6dbf 9a3c
00000040: ae18 0cbe 1d5d 5e3f 1089 0bbd f40e 3e3d
00000050: fc7c 923d 9501 7f3e 4ff4 a63e 926d 21bd
00000060: 9bec 913e 1a5b 823e fffd 3b3d 4b76 e53d
00000070: 4853 54be ac41 2c3d 65b0 993e 720a 893f
00000080: b919 7a3e a630 2e3d 95f1 2f3f c57d 163d
00000090: 81a1 90bc 1624 063d 9426 143d d96d ed3d
000000a0: 3a87 a93e 7a17 98be e5da 2a3e 9a60 a03e
000000b0: e883 663e 3091 003b 217a be3f 0552 5b3e
000000c0: 24f7 253d 0fb0 b73e 7d9e ee3e b0dd ce3e
000000d0: ae76 b53e b3d0 533f eb09 73be 5aa4 c63e
000000e0: eed3 d83d 3048 843e a058 973e 3b01 c63e
000000f0: d869 913d 2072 dd3d d473 d03d 9200 233e

cnn.conv.8.bias f4 [128]
0.20471399 -0.009766391 -0.3586363 0.11581463 0.18582839 -0.10371193 -0.06417724 -0.5066394
-0.8617124 -0.32593235 -0.20706263 -0.89424384 -0.06347622 -1.0681243 0.29086438 -0.12918752
-0.7774963 0.7265012 -0.15697122 -1.0291681 0.06916593 -1.0528443 -0.82070607 -1.0353725
-0.032722816 -0.20548649 -0.3927227 0.48666725 -0.9706556 -0.20097402 -0.1338923 -0.6614523
0.7814289 0.13139082 0.4762198 -0.7807553 0.011146582 -1.199689 -0.014304074 -0.009064998
0.01644224 0.37157115 -0.52933586 -0.13984996 -0.016114838 0.3411059 -1.3749382 0.3358248
0.391167 -0.2792089 -0.117608026 -0.7165141 -0.07669786 -1.3192316 0.7232458 -1.1428698
0.44492123 0.072101586 -0.34654182 -0.26516032 -0.8322092 0.41051137 -0.8416171 -0.94240546
-1.0277385 0.24744323 0.06265034 0.1685808 -0.23583859 -0.12999532 0.23632073 -0.2066564
0.26456586 -0.71006584 -0.0024718656 0.32149282 -1.4380696 0.46966025 -0.14755128 -0.45650977
-0.8695766 0.11649194 -0.49761224 0.5866442 -0.30773968 0.9796788 0.6199803 0.35412768
-0.22244719 -1.2218426 0.07316194 -0.97035384 -0.24319881 0.38881072 -0.9306939 0.11405659
0.4280361 0.59560066 -0.7325516 0.1269396 0.97227716 -0.4708925 -1.1228718 -0.14176926
-0.5697033 0.16864532 -0.7929651 0.12463203 -0.102333546 -0.7365046 -0.18745616 -0.11930451
-1.1093116 -0.4576813 0.4998999 -0.0061262194 -1.265316 -0.90759635 0.02237824 0.19165148
0.4302863 0.2534629 -0.59987646 0.38308883 0.08679914 -1.073707 -0.33391932 0.097158045
00000000: 8ba0 513e 3603 20bc 2d9f b7be 3930 ed3d
00000010: cc49 3e3e ec66 d4bd 5b6f 83bd 1fb3 01bf
00000020: 2f99 5cbf 9be0 a6be 3a08 54be 2aed 64bf
00000030: d2ff 81bd 4cb8 88bf 2dec 943e bc49 04be
00000040: ff09 47bf fcfb 393f 10bd 20be c8bb 83bf
00000050: dea6 8d3d 9ac3 86bf cb19 52bf 1687 84bf
00000060: 5c08 06bd 0d6b 52be f312 c9be 732c f93e
00000070: e37c 78bf 22cc 4dbe 101b 09be f054 29bf
00000080: b90b 483f 518b 063e 15d3 f33e 94df 47bf
00000090: 27a0 363c 698f 99bf a35b 6abc 5b85 14bc
000000a0: e0b1 863c 933e be3e 8e82 07bf d434 0fbe
000000b0: 4403 84bc 6fa5 ae3e fafd afbf 3af1 ab3e
000000c0: 0b47 c83e 78f4 8ebe 7adc f0bd 786d 37bf
000000d0: c513 9dbd 95dc a8bf a326 393f 8f49 92bf
000000e0: b7cc e33e ffa9 933d ee6d b1be 18c3 87be
000000f0: aa0b 55bf 8c2e d23e 3874 57bf 7c41 71bf
00000100: ef8c 83bf c261 7d3e d24e 803d 72a0 2c3e
00000110: ac7f 71be 7e1d 05be 10fe 713e bc9d 53be
00000120: 2d75 873e e0c6 35bf 06ff 21bb b59a a43e
00000130: aa12 b8bf 4f77 f03e af17 17be a6bb e9be
00000140: 929c 5ebf 5493 ee3d 08c7 febe 502e 163f
00000150: 0e90 9dbe 3bcc 7a3f 07b7 1e3f 3950 b53e
00000160: 32c9 63be 5765 9cbf edd5 953d 1c69 78bf
00000170: 1c09 79be 3312 c73e f541 6ebf 8096 e93d
00000180: 8c27 db3e 4979 183f 8088 3bbf 74fc 013e
00000190: 28e7 783f d218 f1be 43ba 8fbf f62b 11be
000001a0: 13d8 11bf 5cb1 2c3e c3ff 4abf 143f ff3d
000001b0: 4094 d1bd 918b 3cbf 82f4 3fbe ec55 f4bd
000001c0: ecfd 8dbf 3455 eabe e1f2 ff3e 74be c8bb
000001d0: e0f5 a1bf 3c58 68bf 9252 b73c 4940 443e
000001e0: 7c4e dc3e e4c5 813e 8191 19bf 3824 c43e
000001f0: bfc3 b13d 3b6f 89bf 79f7 aabe ccfa c63d

gate_cnn.bias f4 [128]
-0.01668845 0.009214607 0.00551175 0.0066184406 -0.02392461 -0.0023054127 -0.0011380079 0.05265211
0.009363645 -0.018525181 -0.0021852376 0.036303163 0.026748855 -0.037119914 -0.002327796 -0.018984035
0.02153144 0.0018995493 0.030503787 0.002595275 0.003018272 -0.041134704 -0.044770986 -0.018882832
0.0021305946 0.015086277 0.032575507 0.009894432 0.017123189 0.0044286563 -0.0027555483 0.010188588
0.003867386 -0.018229904 0.009478799 -0.005837271 0.036705583 -0.013699705 0.015712464 -0.003682351
0.011477139 -0.03360588 -0.0070937662 -0.01560026 0.032914914 -0.014500789 -0.044963423 -0.019224385
0.025822356 0.02153607 0.026233435 0.038017336 -0.00034138057 0.036204375 -0.023919959 -0.016473794
-0.015789306 0.010021569 0.034352157 -0.03409396 0.05897813 0.003819968 0.03628189 0.017994987
0.034475867 0.046499982 0.024469286 -0.0032166045 0.034978744 0.008794487 -0.03211896 0.039549578
0.0019934524 -0.031949297 -0.023421593 -0.013447126 0.0465894 0.008753653 -0.006221159 -0.026217384
0.002870576 0.0027581907 0.0020722665 0.041478146 -0.020041447 -0.051220294 -0.019261286 0.051912364
0.01958975 0.05181517 0.01105024 -0.017204272 -0.027098278 0.034867648 0.0336844 -0.004531957
-0.021180287 0.030711474 0.058787853 0.03294169 0.040738046 -0.02422898 -0.044473216 -0.023704303
-0.008502138 -0.00086481124 0.031372633 -0.015750557 -0.006227994 0.01760248 0.0059423344 0.0001293503
0.018651994 0.060466655 -0.040592887 -0.0001795897 -0.019272989 -0.010254728 -0.017694868 -0.0126346415
0.009208119 0.035932813 -0.042954706 -0.022491314 -0.018525466 0.047428243 0.01773728 0.031072669
00000000: 37b6 88bc ddf8 163c e99b b43b 81df d83b
00000010: 8bfd c3bc 6816 17bb 3529 95ba bda9 573d
00000020: f969 193c 1fc2 97bc 3436 0fbb a0b2 143d
00000030: 6a20 db3c 0d0b 18bd f08d 18bb 6884 9bbc
00000040: b462 b03c 4cfa f83a 14e3 f93c 7d15 2a3b
00000050: 34ce 453b dd7c 28bd c861 37bd 2bb0 9abc
00000060: 72a1 0b3b 6f2c 773c e56d 053d 411c 223c
00000070: ee45 8c3c 431e 913b 6e96 34bb 09ee 263c
00000080: f873 7d3b e156 95bc f74c 1b3c 9446 bfbb
00000090: 9858 163d ba74 60bc 6db7 803c 9953 71bb
000000a0: 9c0a 3c3c 52a6 09bd d372 e8bb 3c98 7fbc
000000b0: cad1 063d b894 6dbc 912b 38bd 757c 9dbc
000000c0: 6889 d33c 6a6c b03c 80e7 d63c 11b8 1b3d
000000d0: 53fb b2b9 0a4b 143d caf3 c3bc 0df4 86bc
000000e0: 9358 81bc 8231 243c d9b4 0c3d 1ca6 0bbd
000000f0: 0d93 713d 6e58 7a3b 529c 143d 396a 933c
00000100: 9136 0d3d c476 3e3d d073 c83c abcd 52bb
00000110: df45 0f3d c116 103c 2c8f 03bd bdfe 213d
00000120: 95a4 023b 44dd 02bd a4de bfbc 5651 5cbc
00000130: 87d4 3e3d 7b6b 0f3c ddda cbbb d7c5 d6bc
00000140: 4620 3c3b c3c2 343b ddce 073b fde4 293d
00000150: f62d a4bc 5fcc 51bd d8c9 9dbc 0fa2 543d
00000160: af7a a03c 253c 543d 110c 353c f9ef 8cbc
00000170: 35fd ddbc 61d1 0e3d a7f8 093d d080 94bb
00000180: 4882 adbc a196 fb3c 88cb 703d deed 063d
00000190: f0dc 263d db7b c6bc 8c29 36bd 872f c2bc
000001a0: 8d4c 0bbc 80b4 62ba 9780 003d 5007 81bc
000001b0: 3314 ccbb 1333 903c eab7 c23b 35a2 0739
000001c0: 11cc 983c e2ab 773d ba44 26bd 3e50 3cb9
000001d0: 63e2 9dbc 7203 28bc d4f4 90bc 8701 4fbc
000001e0: a6dd 163c 492e 133d 46f1 2fbd b43f b8bc
000001f0: b8c2 97bc 1e44 423d c64d 913c 1c8c fe3c

gate_lstm.bias f4 [128]
-0.054672156 0.023760326 -0.017925851 -0.03133106 -0.048766192 -0.017694771 0.026966399 -0.0008693639
0.035348583 -0.027615659 0.071065225 -0.06054424 0.021079207 -0.00012584099 -0.026016895 -0.015650129
0.030829951 0.022061668 0.037959225 0.011753413 -0.06840156 -0.06283764 0.0275903 0.039393295
-0.007936623 0.039164767 -0.051480588 -0.03254972 0.015520306 -0.0020509192 -0.036281943 -0.07969221
0.02832862 -0.00250811 -0.070160575 0.015960159 -0.018463481 0.015349471 -0.04552703 -0.009397895
0.011785466 0.11610186 0.04792947 -0.07580612 -0.017448224 -0.00045109395 0.02573256 -0.016544292
-0.0001810738 0.008645745 -0.04802484 0.0523748 -0.0025558828 0.029422997 0.025587695 0.009555608
-0.0027803662 -0.014758833 0.0022928366 -0.041240763 -0.0050800014 0.043964516 0.08900511 0.031361587
-0.0048453887 -0.0015843695 0.0122024575 -0.01865245 -0.01079192 -0.071825534 -0.02393423 0.022492323
-0.034348678 -0.04028652 -0.0342676 -0.0021778776 -0.018931933 0.032292668 -0.029759055 -0.025998477
0.0062176785 0.011881909 -0.017168969 -0.01235202 0.008138046 -0.031779323 -0.04077866 0.014049979
0.001069393 -0.036783844 -0.032766547 -0.030177785 0.0025766892 -0.0033893818 -0.008643837 0.016486974
-0.0031550014 0.037024617 0.019039808 0.054721504 -0.00173576 0.0036927692 0.04436131 0.027778942
0.00042650953 0.0067676282 -0.0074438453 0.018192308 -0.03236244 -0.041082706 -0.004002703 0.037647903
0.020746099 0.0035437476 -0.04400235 -0.036870394 -5.003746e-05 -0.015148425 -2.4172392e-05 -0.0016634901
0.010167032 0.05217307 -0.02846985 -0.010520048 0.04166103 0.068859175 0.026853792 -0.029180376
00000000: e9ef 5fbd 04a5 c23c 3cd9 92bc ff54 00bd
00000010: 0fbf 47bd a0f4 90bc a3e8 dc3c 06e6 63ba
00000020: adc9 103d 3c3a e2bc a58a 913d 3dfd 77bd
00000030: 4dae ac3c 2ff4 03b9 6221 d5bc b334 80bc
00000040: 188f fc3c acba b43c 227b 1b3d 6391 403c
00000050: 1e16 8cbd 05b1 80bd 0e05 e23c dd5a 213d
00000060: 9c08 02bc 3c6b 203d 4fdd 52bd db52 05bd
00000070: e248 7e3c b768 06bb 609c 14bd ab35 a3bd
00000080: 6c11 e83c 1a5f 24bb 59b0 8fbd e1be 823c
00000090: ba40 97bc 597c 7b3c 8d7a 3abd a1f9 19bc
000000a0: d417 413c d0c6 ed3d b151 443d 3d40 9bbd
000000b0: 94ef 8ebc ce80 ecb9 17cd d23c e587 87bc
000000c0: a1de 3db9 e2a6 0d3c b2b5 44bd f586 563d
000000d0: 9980 27bb 7f08 f13c 499d d13c 208f 1c3c
000000e0: ce36 36bb 08cf 71bc 6a43 163b 13ec 28bd
000000f0: 2476 a6bb 2314 343d 5048 b63d 0275 003d
00000100: 11c6 9ebb 9eaa cfba d1ec 473c 06cd 98bc
00000110: 98d0 30bc 4419 93bd b811 c4bc d241 b83c
00000120: 33b1 0cbd 7a03 25bd 2f5c 0cbd b9ba 0ebb
00000130: 2417 9bbc 5145 043d 43c9 f3bc c2fa d4bc
00000140: abbd cb3b 57ac 423c f0a5 8cbc 2060 4abc
00000150: 7055 053c 092b 02bd 8607 27bd e231 663c
00000160: e02a 8c3a a8aa 16bd 3736 06bd 6737 f7bc
00000170: acdd 283b 6420 5ebb e19e 0dbc b10f 873c
00000180: 24c4 4ebb 20a7 173d 5ff9 9b3c a823 603d
00000190: 7182 e3ba 6302 723b 34b4 353d aa90 e33c
000001a0: 249d df39 fbc2 dd3b 80eb f3bb 0908 953c
000001b0: 7a8e 04bd 5746 28bd 1b29 83bb b034 1a3d
000001c0: b9f3 a93c 383e 683b cf3b 34bd 6905 17bd
000001d0: 50df 51b8 1931 78bc d1c5 cab7 7709 daba
000001e0: 9f93 263c 6eb3 553d 9a39 e9bc 485c 2cbc
000001f0: c2a4 2a3d 0a06 8d3d 7cfc db3c af0b efbc

fc.bias f4 [4]
0.03180258 -0.0013722313 0.0012000032 -0.071111955
00000000: 6c43 023d 71dc b3ba 6d49 9d3a 25a3 91bd

val_138 f4 [2, 512]
0.043285098 0.0083091045 -0.08073093 0.08468191 0.101064615 0.076427564 -0.08463341 -0.080652125
-0.002385785 0.012743001 0.009754469 0.035761755 -0.030316813 0.075983904 -0.037996285 -0.0006164339
0.03864899 0.03707583 0.0041844165 -0.0860294 0.048746385 0.05251704 -0.0437866 0.09478608
0.034606326 -0.071574554 0.1384572 0.025383921 0.11463544 0.060735382 -0.036144126 -0.063528225
0.008704897 -0.03949803 0.09873367 -0.053399254 -0.05528083 -0.023774052 0.033778798 -0.040424913
-0.017368479 -0.10479341 0.14033048 -0.042213805 0.064107105 0.08341905 -0.049470738 0.080445215
0.091868676 0.0045013516 -0.053820718 0.10531781 -0.014049647 0.122407265 0.06546571 -0.029674599
0.12217736 0.11500818 0.13021836 0.011043046 -0.057321485 -0.0064820633 0.056191213 -0.04066154
0.06237331 0.17036366 0.086643 0.13118497 0.05576864 -0.05034729 0.05911353 -0.040265698
0.10952482 0.07874194 0.077883825 0.14218187 0.056938563 0.040839106 0.045112517 0.01811095
-0.05842596 0.045154132 0.0767598 -0.047896825 0.0887923 -0.005227722 0.097886406 0.05215385
0.001642287 -0.06972571 0.03128908 -0.06936493 -0.067268126 -0.06250823 0.058843605 0.11560542
0.096923836 0.078129716 0.11681034 0.048978116 -0.03265326 0.11781225 0.02286438 0.11746403
-0.053915832 -0.08309341 0.05598421 0.1640243 -0.038832705 0.0764299 0.022857785 -0.016860787
0.123948425 -0.014947861 0.054633938 0.057894677 0.0884884 0.0425503 0.098429635 0.11979149
-0.015539364 -0.05006849 0.16962573 -0.08042432 0.027630435 0.12351663 0.061294544 0.04300475
-0.008468613 0.07576811 0.104584575 0.08246088 -0.05105 -0.025370821 0.040845778 -0.023952866
-0.02761807 -0.0032700833 0.07703231 0.09524836 0.08319172 0.059999354 0.0070467573 0.041905057
0.050783858 -0.02611004 0.12615645 -0.04749859 0.04284682 0.08784674 -0.04369576 0.006014768
0.088962376 -0.04505638 0.054170486 0.0786608 0.010084444 0.10139117 -0.031260252 0.08437779
-0.014855132 0.0051655476 0.11455848 0.10497553 -0.017870016 0.1388077 -0.06360314 -0.085302
0.10398424 0.10674308 -0.08577311 0.19899704 -0.071428604 0.10154804 -0.09990758 -0.0678133
0.025219189 0.054937765 -0.033142243 -0.05172913 0.11586209 -0.05481034 -0.050463866 -0.030468818
0.04815961 0.104813255 0.06956902 0.011268095 0.09052669 0.0024559686 0.062221687 0.10072533
0.1250375 0.09325488 -0.11109674 -0.054372314 0.033878043 -0.10239447 -0.13704944 0.019479357
-0.063871644 0.071480244 -0.1090043 0.112149 -0.046386767 0.113630205 0.07179432 0.045225643
-0.02614794 -0.08382965 0.11326003 0.067133605 -0.08431197 0.09073057 0.008765404 -0.016429458
-0.111695245 -0.0995401 -0.114569716 0.14365931 0.17006554 -0.06457328 -0.114991814 -0.058997456
-0.104202874 0.09915302 0.087016776 0.0694394 0.026884928 0.073394515 -0.12485447 -0.019131519
0.078119285 -0.032420218 0.08225424 -0.109605186 0.00093964074 -0.121044144 0.124586 0.08222417
-0.21696237 0.013746083 -0.09863054 -0.04484741 0.08233224 -0.06422084 0.01909277 0.09066082
-0.034286246 -0.04242886 0.07326838 -0.034212783 -0.11137678 0.015313013 0.12971045 0.02175814
00000000: b74b 313d e922 083c 4256 a5bd b66d ad3d
00000010: f7fa ce3d 0e86 9c3d 4854 adbd f12c a5bd
00000020: d55a 1cbb 05c8 503c 35d1 1f3c eb7a 123d
00000030: f75a f8bc 739d 9b3d fea1 1bbd 2e98 21ba
00000040: 674e 1e3d d3dc 173d 6e1d 893b 2f30 b0bd
00000050: 4aaa 473d 1c1c 573d 9459 33bd 341f c23d
00000060: 5dbf 0d3d ae95 92bd b9c7 0d3e f1f1 cf3c
00000070: fcc5 ea3d aac5 783d dd0b 14bd 161b 82bd
00000080: fc9e 0e3c b0c8 21bd e134 ca3d 2db9 5abd
00000090: 276e 62bd cdc1 c2bc a35b 0a3d 9894 25bd
000000a0: 5748 8ebc ed9d d6bd cbb2 0f3e 62e8 2cbd
000000b0: 964a 833d 9bd7 aa3d d4a1 4abd 76c0 a43d
000000c0: a525 bc3d 1380 933b 1d73 5cbd ddb0 d73d
000000d0: 7e30 66bc a9b0 fa3d e312 863d 2518 f3bc
000000e0: 2038 fa3d 6989 eb3d f657 053e e4ed 343c
000000f0: efc9 6abd 7d67 d4bb c228 663d b78c 26bd
00000100: 287b 7f3d d073 2e3e e371 b13d 5a55 063e
00000110: a86d 643d f638 4ebd 0721 723d a5ed 24bd
00000120: 8d4e e03d 7443 a13d 8e81 9f3d 2098 113e
00000130: 6938 693d e846 273d e7c7 383d 6a5d 943c
00000140: 0f50 6fbd 8af3 383d 3e34 9d3d 762f 44bd
00000150: bdd8 b53d 504d abbb ab78 c83d 479f 553d
00000160: 0242 d73a 5acc 8ebd fa28 003d 330f 8ebd
00000170: dfc3 89bd 5104 80bd fe05 713d 89c2 ec3d
00000180: 0180 c63d 7902 a03d 423a ef3d 479d 483d
00000190: 6dbf 05bd 8d47 f13d 154e bb3c fb90 f03d
000001a0: d9d6 5cbd e12c aabd b34f 653d fcf5 273e
000001b0: 0b0f 1fbd 4887 9c3d 4040 bb3c a21f 8abc
000001c0: acd8 fd3d e0e7 74bc d6c7 5f3d f822 6d3d
000001d0: 6839 b53d 3949 2e3d 7a95 c93d 3e55 f53d
000001e0: d198 7ebc 9e14 4dbd 5eb2 2d3e 82b5 a4bd
000001f0: 3959 e23c 49f6 fc3d fd0f 7b3d c025 303d
00000200: f0bf 0abc 502c 9b3d 7030 d63d 40e1 a83d
00000210: ce19 51bd 78d6 cfbc e74d 273d cd38 c4bc
00000220: 4a3f e2bc e54e 56bb 1ec3 9d3d 9211 c33d
00000230: 6c60 aa3d e2c1 753d 7ce8 e63b a3a4 2b3d
00000240: bc02 503d b9e4 d5bc 282f 013e e28d 42bd
00000250: 2680 2f3d fee8 b33d 53fa 32bd 8817 c53b
00000260: e831 b63d 0a8d 38bd dfe1 5d3d ea18 a13d
00000270: 3939 253c 2ca6 cf3d c00a 00bd 43ce ac3d
00000280: f162 73bc c143 a93b a39d ea3d 69fd d63d
00000290: 2464 92bc 9b23 0e3e 5d42 82bd d1b2 aebd
000002a0: b0f5 d43d 1e9c da3d d0a9 afbd e1c5 4b3e
000002b0: 2949 92bd 6bf8 cf3d 589c ccbd b3e1 8abd
000002c0: 7998 ce3c 6c06 613d 29c0 07bd ede1 53bd
000002d0: 1a49 ed3d cf80 60bd 33b3 4ebd be99 f9bc
000002e0: 0343 453d 55a8 d63d 347a 8e3d d19d 383c
000002f0: 0f66 b93d 51f4 203b 2bdc 7e3d 1549 ce3d
00000300: d509 003e 6afc be3d b086 e3bd 81b5 5ebd
00000310: b4c3 0a3d 31b4 d1bd b056 0cbe 2c93 9f3c
00000320: 23cf 82bd 3c64 923d a53d dfbd 60ae e53d
00000330: 0d00 3ebd f4b6 e83d e708 933d 863e 393d
00000340: 3434 d6bc e1ae abbd e0f4 e73d 587d 893d
00000350: c1ab acbd f3d0 b93d c59c 0f3c 1297 86bc
00000360: 7ac0 e4bd aedb cbbd 87a3 eabd 6d1b 133e
00000370: a925 2e3e ff3e 84bd d480 ebbd 51a7 71bd
00000380: 5168 d5bd bd10 cb3d da35 b23d 3f36 8e3d
00000390: c83d dc3c dd4f 963d b3b3 ffbd b4b9 9cbc
000003a0: 01fd 9f3d 10cb 04bd e974 a83d af78 e0bd
000003b0: 3952 763a fee5 f7bd f226 ff3d 2565 a83d
000003c0: 622b 5ebe 4037 613c cffe c9bd ebb1 37bd
000003d0: ce9d a83d 3786 83bd 7168 9c3c 61ac b93d
000003e0: bc6f 0cbd e2c9 2dbd bb0d 963d b422 0cbd
000003f0: 8219 e4bd 6fe3 7a3c d1d2 043e 203e b23c

val_248 f4 [2, 512]
-0.015980912 0.06304926 -0.03511384 0.07032112 0.041615732 -0.04201422 -0.04971804 -0.037252877
-0.036170598 0.00030137144 0.13597596 0.04240907 0.10858369 0.024894536 0.011848558 -0.117834754
-0.074270874 0.018701479 -0.05794428 0.11099644 0.05914356 0.046794005 -0.012011153 0.043426648
-0.069359 0.007403662 -0.014059387 -0.0045210533 0.042218074 0.03256246 -0.02107594 0.110819615
0.09226669 0.012051237 0.059992816 0.073115945 -0.021984868 0.013398072 -0.04005541 0.03920856
0.08412169 0.12323898 0.03570967 -0.001876353 0.111983165 -0.062187817 -0.0115144085 -0.007512794
0.071561374 0.091968685 0.07586794 0.005589347 0.05829767 0.05041397 0.011371858 -0.062520854
0.038746208 -0.016961174 4.4980054e-05 0.0057689645 -0.025428684 0.058244653 0.098766506 0.09675695
0.14567387 0.17195436 -0.06687869 -0.025626574 -0.0150919985 0.075090714 0.07679308 0.2176766
0.12016158 -0.0402913 0.07229773 0.14406992 0.031660255 -0.055406697 0.18155609 -0.028214956
0.07730964 0.11849311 0.0072353156 0.12384722 0.057044555 0.10139286 0.14728041 0.17731194
0.0740002 0.14920205 0.08664692 0.05495529 0.062408347 0.17083101 -0.021484585 0.07431186
-0.011117685 -0.0047389013 -0.025333887 0.034836255 0.09556664 -0.032534767 -0.059222005 0.10504176
-0.0015242696 0.13458128 0.03571987 0.10695544 -0.02037165 -0.03899372 0.12587142 0.1391104
-0.053264964 0.15135103 0.10402621 0.11317651 0.074287266 0.035617284 -0.01736381 0.09572271
0.09445398 -0.04163101 0.12213117 0.04475386 0.013387192 -0.014402035 0.15384653 0.10357833
0.034075405 0.14757201 0.09208547 -0.00625637 0.10138662 0.034440007 0.073022075 0.13026726
0.065755256 0.087321155 0.069541134 0.0879671 0.10948583 0.09034577 0.059921257 0.10214009
0.104147695 0.043719176 -0.015202354 0.0439368 0.025361774 0.13798834 -0.067055285 0.104767635
-0.031781692 0.10764821 0.16517676 -0.017230673 0.103344195 0.013938636 0.13779044 0.007630156
0.10987677 -0.010578158 0.09350639 0.03301215 -0.018274317 0.021937594 0.10592269 -0.05088092
0.058518186 0.04274288 -0.04328392 0.0073136953 0.015479689 0.07417937 0.052649684 0.14190526
0.0884089 0.1149679 -0.003599059 0.16414279 -0.0049669184 0.13480185 0.04951442 0.09464668
0.07541226 0.02244268 0.08748337 0.13123502 -0.03825478 -0.014540225 0.05686703 0.19150732
-6.3028565e-05 -0.07208499 -0.01333856 0.02555238 0.04066588 0.042180613 -0.10516173 0.06411246
-0.03210276 -0.122202724 -0.053319618 -0.11917422 0.106702894 0.062510684 0.07516887 -0.08194153
-0.07673008 -0.12554131 -0.05872447 0.10300532 0.08182039 -0.08915799 -0.09475575 -0.0030648243
0.028237257 0.08738411 0.068094894 -0.09354828 -0.053848937 -0.0871952 0.010004163 0.13470769
0.07317474 0.015428048 -0.10415488 -0.08689887 0.095075056 0.06163735 -0.0064622946 -0.06498018
-0.0045414893 0.12985466 0.00806064 -0.02742417 -0.067754775 -0.057450134 -0.07429724 0.07133955
-0.05266402 0.08810025 0.029429242 -0.0034071065 -0.020925289 -0.014820233 0.11170898 -0.110359125
-0.060029916 0.034308802 -0.12703158 0.02720096 0.0014115877 -0.035933197 0.07444393 0.052962765
00000000: 67ea 82bc f81f 813d 88d3 0fbd 8504 903d
00000010: 4275 2a3d 1a17 2cbd 25a5 4bbd 7996 18bd
00000020: 9f27 14bd 6401 9e39 483d 0b3e 22b5 2d3d
00000030: 2061 de3d a0ef cb3c 7420 423c 5953 f1bd
00000040: 541b 98bd d833 993c fb56 6dbd 1a52 e33d
00000050: 8440 723d 12ab 3f3d 6dca 44bc 24e0 313d
00000060: 170c 8ebd 6b9a f23b 5859 66bc 5825 94bb
00000070: dcec 2c3d 3760 053d 73a7 acbc 65f5 e23d
00000080: 52f6 bc3d 8d72 453c 07bb 753d d0bd 953d
00000090: 9c19 b4bc 9683 5b3c 2411 24bd 2899 203d
000000a0: fe47 ac3d b864 fc3d 4e44 123d f6ef f5ba
000000b0: 6e57 e53d a7b8 7ebd eea6 3cbc e22d f6bb
000000c0: c58e 923d 145a bc3d a760 9b3d d726 b73b
000000d0: 8ac9 6e3d e17e 4e3d 0851 3a3c ef0a 80bd
000000e0: 58b4 1e3d 29f2 8abc f7a8 3c38 9509 bd3b
000000f0: d14f d0bc f291 6e3d 1846 ca3d 8228 c63d
00000100: 882b 153e ce14 303e b2f7 88bd d2ee d1bc
00000110: 6e44 77bc 29c9 993d b145 9d3d 9de6 5e3e
00000120: 4617 f63d 7d08 25bd d510 943d 1187 133e
00000130: 2fae 013d 22f2 62bd d7e9 393e 0d23 e7bc
00000140: 8454 9e3d 84ac f23d 3a16 ed3b 9ca3 fd3d
00000150: 8da7 693d 0fa7 cf3d add0 163e 4391 353e
00000160: 6b8d 973d 6cc8 183e f173 b13d cc18 613d
00000170: e59f 7f3d 53ee 2e3e 7100 b0bc d130 983d
00000180: f326 36bc c948 9bbb 0389 cfbc 76b0 0e3d
00000190: 71b8 c33d 2d43 05bd c692 72bd 2220 d73d
000001a0: 00ca c7ba adcf 093e 004f 123d 740b db3d
000001b0: 72e2 a6bc e1b7 1fbd 70e4 003e f572 0e3e
000001c0: 5d2c 5abd c4fb 1a3e b20b d53d 16c9 e73d
000001d0: ec23 983d 6ee3 113d 8d3e 8ebc 450a c43d
000001e0: 1771 c13d 4785 2abd e81f fa3d d34f 373d
000001f0: f455 5b3c 83f6 6bbc f289 1d3e e020 d43d
00000200: a792 0b3d 1e1d 173e 4f97 bc3d 3c02 cdbb
00000210: caa3 cf3d f710 0d3d 998c 953d c864 053e
00000220: b1aa 863d 6fd5 b23d 956b 8e3d 1828 b43d
00000230: 1b3a e03d 3407 b93d fe6f 753d d32e d13d
00000240: 634b d53d e112 333d 4b13 79bc 13f7 333d
00000250: 7fc3 cf3c d14c 0d3e 4854 89bd 6a90 d63d
00000260: 852d 02bd aa76 dc3d 1924 293e 5727 8dbc
00000270: 1fa6 d33d e05e 643c f018 0d3e 6306 fa3b
00000280: 1207 e13d 0350 2dbc 4780 bf3d c037 073d
00000290: 05b4 95bc 78b6 b33c ffed d83d 8368 50bd
000002a0: c4b0 6f3d 2813 2f3d 7b4a 31bd b9a7 ef3b
000002b0: 869e 7d3c 5beb 973d 32a7 573d 9d4f 113e
000002c0: ba0f b53d 4a74 eb3d 31de 6bbb 0c15 283e
000002d0: 88c1 a2bb 7f09 0a3e a2cf 4a3d 1ed6 c13d
000002e0: be71 9a3d b6d9 b73c 7b2a b33d 7962 063e
000002f0: 0bb1 1cbd 203a 6ebc 67ed 683d 7f1a 443e
00000300: 342e 84b8 4ca1 93bd fa89 5abc 3a53 d13c
00000310: 4491 263d 94c5 2c3d 085f d7bd 654d 833d
00000320: 2f7e 03bd 6c45 fabd ac65 5abd 9d11 f4bd
00000330: 0c87 da3d 9a05 803d 23f2 993d f6d0 a7bd
00000340: a924 9dbd e78d 00be 1289 70bd 74f4 d23d
00000350: 7391 a73d 7798 b6bd 4d0f c2bd 38db 48bb
00000360: d251 e73c 71f6 b23d 5675 8b3d 3e96 bfbd
00000370: b490 5cbd 6693 b2bd 80e8 233c d0f0 093e
00000380: a3dc 953d ecc5 7c3c 274f d5bd 09f8 b1bd
00000390: b6b6 c23d 7277 7c3d a8c1 d3bb 5414 85bd
000003a0: c6d0 94bb 9ff8 043e c610 043c a7a8 e0bc
000003b0: 04c3 8abd d550 6bbd 2729 98bd 781a 923d
000003c0: 3ab6 57bd e76d b43d 9815 f13c c349 5fbb
000003d0: 836b abbc 90d0 72bc adc7 e43d f703 e2bd
000003e0: eee1 75bd 6387 0c3d 9114 02be 8cd4 de3c
000003f0: 0605 b93a b02e 13bd 0f76 983d 7cef 583d

cnn.conv.0.weight_quantized u1 [32, 1, 3, 3]
147 154 114 151 109 130 111 143
155 87 168 142 146 106 135 120
159 143 76 141 78 96 100 188
60 101 94 54 125 22 221 26
198 124 70 168 126 154 124 106
126 104 147 163 155 86 176 144
169 62 34 76 43 192 147 160
165 116 181 57 130 62 153 73
147 90 214 17 33 36 241 182
189 61 43 53 70 153 143 187
85 27 175 62 190 85 181 12
63 175 142 84 155 200 46 39
227 76 66 76 65 149 109 83
134 106 111 108 9 59 255 126
164 22 67 106 148 93 101 99
106 108 107 107 106 103 64 25
216 74 214 149 10 203 91 103
75 40 168 113 163 40 206 40
127 147 160 164 171 64 133 80
107 63 235 47 157 133 141 44
205 153 145 0 168 90 54 221
149 63 76 127 180 99 70 87
46 167 207 6 145 144 134 77
143 200 148 91 99 124 95 85
185 189 119 104 130 121 177 153
9 77 218 175 110 38 50 9
77 166 187 162 12 34 103 246
116 93 154 77 84 176 90 107
47 155 174 147 50 40 47 165
155 174 159 136 126 66 66 64
161 94 91 112 122 78 60 143
78 193 96 59 103 80 94 45
00000000: 939a 7297 6d82 6f8f 9b57 a88e 926a 8778
00000010: 9f8f 4c8d 4e60 64bc 3c65 5e36 7d16 dd1a
00000020: c67c 46a8 7e9a 7c6a 7e68 93a3 9b56 b090
00000030: a93e 224c 2bc0 93a0 a574 b539 823e 9949
00000040: 935a d611 2124 f1b6 bd3d 2b35 4699 8fbb
00000050: 551b af3e be55 b50c 3faf 8e54 9bc8 2e27
00000060: e34c 424c 4195 6d53 866a 6f6c 093b ff7e
00000070: a416 436a 945d 6563 6a6c 6b6b 6a67 4019
00000080: d84a d695 0acb 5b67 4b28 a871 a328 ce28
00000090: 7f93 a0a4 ab40 8550 6b3f eb2f 9d85 8d2c
000000a0: cd99 9100 a85a 36dd 953f 4c7f b463 4657
000000b0: 2ea7 cf06 9190 864d 8fc8 945b 637c 5f55
000000c0: b9bd 7768 8279 b199 094d daaf 6e26 3209
000000d0: 4da6 bba2 0c22 67f6 745d 9a4d 54b0 5a6b
000000e0: 2f9b ae93 3228 2fa5 9bae 9f88 7e42 4240
000000f0: a15e 5b70 7a4e 3c8f 4ec1 603b 6750 5e2d

cnn.conv.4.weight_quantized u1 [64, 32, 3, 3]
105 126 152 146 98 88 97 103
87 113 154 114 93 96 141 99
128 137 109 127 135 109 115 114
94 118 172 108 91 149 159 169
157 130 84 105 152 124 92 171
115 97 90 118 120 106 145 99
82 122 154 148 122 121 125 119
100 140 149 75 166 117 131 142
139 193 102 143 150 95 107 96
155 155 143 119 125 136 133 130
110 159 138 137 136 91 99 114
116 123 120 115 167 136 174 109
87 134 102 104 131 120 94 151
169 136 132 114 109 145 148 95
131 168 102 159 129 130 122 140
112 157 138 162 177 131 83 152
138 96 128 98 129 126 130 132
122 180 132 112 131 132 147 110
158 119 68 98 162 145 179 172
150 111 111 136 108 85 100 138
146 95 95 136 96 86 144 132
163 165 136 148 168 135 117 137
122 174 114 86 130 116 105 151
152 154 113 117 115 123 143 90
134 98 94 98 181 89 165 162
116 131 117 165 166 133 139 126
158 163 162 127 122 137 144 101
110 142 115 139 111 154 127 146
183 139 160 162 179 124 113 160
119 117 132 142 155 135 162 166
198 196 143 95 119 136 91 128
105 88 104 105 101 137 170 143
00000000: 697e 9892 6258 6167 5771 9a72 5d60 8d63
00000010: 8089 6d7f 876d 7372 5e76 ac6c 5b95 9fa9
00000020: 9d82 5469 987c 5cab 7361 5a76 786a 9163
00000030: 527a 9a94 7a79 7d77 648c 954b a675 838e
00000040: 8bc1 668f 965f 6b60 9b9b 8f77 7d88 8582
00000050: 6e9f 8a89 885b 6372 747b 7873 a788 ae6d
00000060: 5786 6668 8378 5e97 a988 8472 6d91 945f
00000070: 83a8 669f 8182 7a8c 709d 8aa2 b183 5398
00000080: 8a60 8062 817e 8284 7ab4 8470 8384 936e
00000090: 9e77 4462 a291 b3ac 966f 6f88 6c55 648a
000000a0: 925f 5f88 6056 9084 a3a5 8894 a887 7589
000000b0: 7aae 7256 8274 6997 989a 7175 737b 8f5a
000000c0: 8662 5e62 b559 a5a2 7483 75a5 a685 8b7e
000000d0: 9ea3 a27f 7a89 9065 6e8e 738b 6f9a 7f92
000000e0: b78b a0a2 b37c 71a0 7775 848e 9b87 a2a6
000000f0: c6c4 8f5f 7788 5b80 6958 6869 6589 aa8f

cnn.conv.8.weight_quantized u1 [128, 64, 3, 3]
111 114 118 88 96 108 121 87
102 90 116 101 110 112 108 111
106 102 120 121 108 137 133 116
142 142 112 105 96 63 127 127
116 112 120 115 102 130 95 96
134 124 84 138 136 117 118 117
104 111 116 124 132 112 111 122
118 98 128 104 104 107 98 145
147 128 142 147 137 125 101 131
106 107 102 111 113 99 98 97
99 125 135 147 137 140 147 120
117 129 130 146 119 143 138 116
131 117 103 109 132 133 104 104
113 126 106 109 86 82 110 120
118 113 123 107 111 110 135 113
91 136 136 64 95 120 162 155
115 148 155 144 150 116 132 121
119 120 116 138 135 112 91 111
121 119 109 100 106 130 139 138
113 120 128 80 102 143 112 131
131 137 100 116 106 144 112 140
116 120 150 84 109 98 112 115
128 114 113 127 128 133 133 111
107 108 115 100 107 129 132 126
114 94 118 130 117 121 162 133
132 119 103 120 122 95 109 95
109 107 103 82 121 124 94 116
120 121 101 151 135 114 140 128
143 104 100 104 110 102 118 98
96 95 119 156 91 110 112 90
109 118 111 140 122 133 137 137
135 98 103 127 105 132 119 129
00000000: 6f72 7658 606c 7957 665a 7465 6e70 6c6f
00000010: 6a66 7879 6c89 8574 8e8e 7069 603f 7f7f
00000020: 7470 7873 6682 5f60 867c 548a 8875 7675
00000030: 686f 747c 8470 6f7a 7662 8068 686b 6291
00000040: 9380 8e93 897d 6583 6a6b 666f 7163 6261
00000050: 637d 8793 898c 9378 7581 8292 778f 8a74
00000060: 8375 676d 8485 6868 717e 6a6d 5652 6e78
00000070: 7671 7b6b 6f6e 8771 5b88 8840 5f78 a29b
00000080: 7394 9b90 9674 8479 7778 748a 8770 5b6f
00000090: 7977 6d64 6a82 8b8a 7178 8050 668f 7083
000000a0: 8389 6474 6a90 708c 7478 9654 6d62 7073
000000b0: 8072 717f 8085 856f 6b6c 7364 6b81 847e
000000c0: 725e 7682 7579 a285 8477 6778 7a5f 6d5f
000000d0: 6d6b 6752 797c 5e74 7879 6597 8772 8c80
000000e0: 8f68 6468 6e66 7662 605f 779c 5b6e 705a
000000f0: 6d76 6f8c 7a85 8989 8762 677f 6984 7781

val_136_scale f4 [2]
0.0021805041 0.0024436242
00000000: cae6 0e3b 3625 203b

val_137_scale f4 [2]
0.0018532388 0.0022229413
00000000: 60e8 f23a c4ae 113b

val_136_quantized i1 [2, 40, 256]
33 -18 11 -41 27 6 29 67
-45 60 37 30 24 -73 54 28
-51 -42 -44 -7 -3 -21 -70 2
-44 -33 46 34 -24 -77 -37 -13
-52 -37 -32 29 30 -44 24 -69
-23 58 -16 -14 8 -33 -5 44
58 6 -2 65 32 42 40 44
-34 -58 -12 48 36 -4 -49 -47
-13 4 4 -57 0 26 67 -30
-59 41 -8 -19 -51 -25 28 -37
-44 29 -45 -23 -74 52 -25 -5
-52 1 -71 50 50 30 -38 50
16 -73 -49 51 -47 -70 -2 -65
-38 14 -55 -35 52 15 -47 -14
-19 -28 -70 -5 56 -2 -45 37
-31 4 -36 38 30 -44 -65 16
-1 -30 10 -12 10 6 52 -32
-9 58 -63 2 -50 -2 32 -8
10 -18 -42 -36 -56 50 -48 8
41 25 -74 28 27 3 -28 23
-45 -71 -60 19 -44 -40 42 -21
43 -37 28 -33 20 -46 -64 -58
-17 -20 -49 33 44 54 -26 -24
-13 -13 -47 49 -29 -46 -49 -16
-19 -4 -32 -66 -27 -49 1 -52
-24 16 26 -24 15 -60 -11 -36
59 10 43 22 -15 -44 10 -59
-36 -36 34 -4 2 47 -42 14
-29 -8 7 42 -1 -8 45 54
-48 -26 3 -25 -40 37 15 12
22 39 -40 30 31 44 40 56
20 23 -34 12 51 17 26 23
00000000: 21ee 0bd7 1b06 1d43 d33c 251e 18b7 361c
00000010: cdd6 d4f9 fdeb ba02 d4df 2e22 e8b3 dbf3
00000020: ccdb e01d 1ed4 18bb e93a f0f2 08df fb2c
00000030: 3a06 fe41 202a 282c dec6 f430 24fc cfd1
00000040: f304 04c7 001a 43e2 c529 f8ed cde7 1cdb
00000050: d41d d3e9 b634 e7fb cc01 b932 321e da32
00000060: 10b7 cf33 d1ba febf da0e c9dd 340f d1f2
00000070: ede4 bafb 38fe d325 e104 dc26 1ed4 bf10
00000080: ffe2 0af4 0a06 34e0 f73a c102 cefe 20f8
00000090: 0aee d6dc c832 d008 2919 b61c 1b03 e417
000000a0: d3b9 c413 d4d8 2aeb 2bdb 1cdf 14d2 c0c6
000000b0: efec cf21 2c36 e6e8 f3f3 d131 e3d2 cff0
000000c0: edfc e0be e5cf 01cc e810 1ae8 0fc4 f5dc
000000d0: 3b0a 2b16 f1d4 0ac5 dcdc 22fc 022f d60e
000000e0: e3f8 072a fff8 2d36 d0e6 03e7 d825 0f0c
000000f0: 1627 d81e 1f2c 2838 1417 de0c 3311 1a17

val_137_quantized i1 [2, 64, 256]
26 -6 -3 -30 20 -6 -23 55
2 26 39 32 -50 -15 -56 64
-12 11 10 -10 -64 -20 31 44
69 61 47 -34 5 31 -27 14
38 -38 -23 9 37 22 -25 -41
-39 -30 51 -39 52 17 -25 -26
17 -6 22 -16 33 45 -4 -7
-9 35 -56 -32 -40 -36 -19 21
-12 50 -22 7 -6 -29 -45 -20
-46 -6 -10 -27 7 30 30 26
46 25 17 6 4 -21 72 -26
-4 18 -18 11 -3 -44 0 0
-29 18 34 28 17 59 30 -36
6 -42 47 18 -47 6 -9 -33
-24 -12 -11 24 -13 -6 -19 0
-14 8 50 58 -36 -3 -9 38
65 69 41 79 2 32 -1 67
-6 -4 93 65 -35 -14 4 -12
-32 57 86 56 -36 -28 -9 33
43 19 26 25 16 -6 73 45
2 -3 19 7 -39 -20 25 45
34 6 16 -42 56 34 -30 41
-24 37 60 58 45 36 -36 8
41 31 -2 -39 -43 31 44 46
22 1 -12 37 51 15 -23 43
34 -19 15 41 36 -20 13 47
-70 29 -53 -31 56 48 -35 -76
61 -22 -61 -33 5 6 -46 -43
-20 34 -7 54 43 65 -42 64
22 14 57 33 19 50 -37 54
-53 31 11 -63 -28 -37 25 -10
8 -56 -58 10 -68 22 -62 34
00000000: 1afa fde2 14fa e937 021a 2720 cef1 c840
00000010: f40b 0af6 c0ec 1f2c 453d 2fde 051f e50e
00000020: 26da e909 2516 e7d7 d9e2 33d9 3411 e7e6
00000030: 11fa 16f0 212d fcf9 f723 c8e0 d8dc ed15
00000040: f432 ea07 fae3 d3ec d2fa f6e5 071e 1e1a
00000050: 2e19 1106 04eb 48e6 fc12 ee0b fdd4 0000
00000060: e312 221c 113b 1edc 06d6 2f12 d106 f7df
00000070: e8f4 f518 f3fa ed00 f208 323a dcfd f726
00000080: 4145 294f 0220 ff43 fafc 5d41 ddf2 04f4
00000090: e039 5638 dce4 f721 2b13 1a19 10fa 492d
000000a0: 02fd 1307 d9ec 192d 2206 10d6 3822 e229
000000b0: e825 3c3a 2d24 dc08 291f fed9 d51f 2c2e
000000c0: 1601 f425 330f e92b 22ed 0f29 24ec 0d2f
000000d0: ba1d cbe1 3830 ddb4 3dea c3df 0506 d2d5
000000e0: ec22 f936 2b41 d640 160e 3921 1332 db36
000000f0: cb1f 0bc1 e4db 19f6 08c8 c60a bc16 c222

val_246_scale f4 [2]
0.0021007492 0.0023597511
00000000: b9ac 093b 0ea6 1a3b

val_247_scale f4 [2]
0.0023963717 0.002219507
00000000: 720c 1d3b 2675 113b

val_246_quantized i1 [2, 128, 256]
40 12 -11 15 9 25 5 36
-35 -1 -19 6 16 24 22 11
3 8 -14 -28 29 22 1 -16
33 -9 49 -4 38 -14 32 11
-35 -30 11 32 -12 21 10 -25
25 16 -8 22 4 -6 30 14
14 50 -10 9 -20 -19 4 39
10 19 -29 18 22 27 5 14
62 11 -29 -34 25 39 44 48
46 -41 19 -7 24 -4 -7 21
35 8 13 14 43 39 0 60
34 32 18 41 48 52 18 -12
35 22 6 24 51 59 30 28
5 63 53 2 23 -11 -3 3
33 47 2 -5 31 32 18 4
-15 42 14 29 3 2 53 4
30 36 -35 48 -19 6 -21 5
1 -5 17 23 18 -1 0 67
62 -15 59 -8 2 34 -19 9
15 34 26 -18 35 24 46 56
-7 44 57 49 -16 2 -1 -29
51 36 22 60 54 8 24 45
56 43 14 61 -5 21 1 -12
-15 49 8 63 75 68 11 -9
26 -11 -11 -7 -37 25 28 -16
50 16 -47 -38 39 30 25 5
62 -28 18 19 -12 -34 27 -32
-4 -22 44 6 -23 -12 -11 -13
8 53 11 35 5 -30 -3 10
-36 -5 -5 -57 -32 -1 -39 -43
15 71 -32 12 35 -37 -33 -12
1 20 24 55 -31 17 9 31
00000000: 280c f50f 0919 0524 ddff ed06 1018 160b
00000010: 0308 f2e4 1d16 01f0 21f7 31fc 26f2 200b
00000020: dde2 0b20 f415 0ae7 1910 f816 04fa 1e0e
00000030: 0e32 f609 eced 0427 0a13 e312 161b 050e
00000040: 3e0b e3de 1927 2c30 2ed7 13f9 18fc f915
00000050: 2308 0d0e 2b27 003c 2220 1229 3034 12f4
00000060: 2316 0618 333b 1e1c 053f 3502 17f5 fd03
00000070: 212f 02fb 1f20 1204 f12a 0e1d 0302 3504
00000080: 1e24 dd30 ed06 eb05 01fb 1117 12ff 0043
00000090: 3ef1 3bf8 0222 ed09 0f22 1aee 2318 2e38
000000a0: f92c 3931 f002 ffe3 3324 163c 3608 182d
000000b0: 382b 0e3d fb15 01f4 f131 083f 4b44 0bf7
000000c0: 1af5 f5f9 db19 1cf0 3210 d1da 271e 1905
000000d0: 3ee4 1213 f4de 1be0 fcea 2c06 e9f4 f5f3
000000e0: 0835 0b23 05e2 fd0a dcfb fbc7 e0ff d9d5
000000f0: 0f47 e00c 23db dff4 0114 1837 e111 091f

val_247_quantized i1 [2, 64, 256]
12 -20 -4 -31 -1 -35 -10 -56
-66 -4 5 -7 -14 11 4 55
3 -16 -28 -90 1 16 -32 -24
21 -40 -9 6 20 -3 17 -18
25 41 4 -6 -18 -13 30 35
12 -14 14 -16 15 -11 45 -14
-3 34 13 -5 -67 -27 -28 4
-26 -22 -17 25 -28 16 -30 -26
20 -6 22 -27 -18 4 2 -55
-29 35 -19 -35 -7 -58 -46 -21
-8 -2 -46 -78 7 -52 -33 -25
3 -21 -42 14 -25 6 8 -21
-43 -20 29 11 -53 14 -2 14
32 -19 6 -28 -37 5 -14 -45
-27 16 -11 26 -30 -26 -16 -50
-1 13 -53 -35 -18 -29 -53 -5
29 5 -44 26 8 -35 48 8
-21 -10 -39 -8 -17 -37 -35 -64
-23 30 -34 -44 8 -37 -14 -28
-8 -10 7 -50 -29 -25 -42 -53
-65 -34 -16 42 -47 -74 -42 22
-4 57 10 -55 -2 6 10 -26
-39 -22 25 -60 -18 -36 -22 -49
19 1 -4 27 0 -50 -47 -10
-1 45 34 11 7 39 38 27
12 3 -25 47 12 4 -39 23
25 7 -44 31 66 -14 -24 56
39 -41 -34 -29 28 -5 -52 0
7 -13 -37 23 44 8 13 -13
-28 15 6 -29 -18 -48 -59 22
5 32 -28 72 -2 -32 11 -39
60 -46 20 16 0 1 40 5
00000000: 0cec fce1 ffdd f6c8 befc 05f9 f20b 0437
00000010: 03f0 e4a6 0110 e0e8 15d8 f706 14fd 11ee
00000020: 1929 04fa eef3 1e23 0cf2 0ef0 0ff5 2df2
00000030: fd22 0dfb bde5 e404 e6ea ef19 e410 e2e6
00000040: 14fa 16e5 ee04 02c9 e323 eddd f9c6 d2eb
00000050: f8fe d2b2 07cc dfe7 03eb d60e e706 08eb
00000060: d5ec 1d0b cb0e fe0e 20ed 06e4 db05 f2d3
00000070: e510 f51a e2e6 f0ce ff0d cbdd eee3 cbfb
00000080: 1d05 d41a 08dd 3008 ebf6 d9f8 efdb ddc0
00000090: e91e ded4 08db f2e4 f8f6 07ce e3e7 d6cb
000000a0: bfde f02a d1b6 d616 fc39 0ac9 fe06 0ae6
000000b0: d9ea 19c4 eedc eacf 1301 fc1b 00ce d1f6
000000c0: ff2d 220b 0727 261b 0c03 e72f 0c04 d917
000000d0: 1907 d41f 42f2 e838 27d7 dee3 1cfb cc00
000000e0: 07f3 db17 2c08 0df3 e40f 06e3 eed0 c516
000000f0: 0520 e448 fee0 0bd9 3cd2 1410 0001 2805

gate_cnn.weight_quantized u1 [128, 128]
152 130 150 157 151 148 132 42
61 86 112 78 134 82 130 131
86 131 144 71 120 80 45 66
126 99 146 138 74 92 126 92
149 120 155 54 88 51 113 121
91 139 100 118 139 158 40 138
127 75 135 93 124 58 154 91
131 154 135 142 99 131 58 97
61 152 133 132 135 125 121 142
160 85 125 128 80 137 132 47
68 128 81 144 120 124 142 155
126 35 123 71 161 137 76 123
165 143 81 155 128 61 77 169
139 129 96 143 122 82 88 135
93 92 138 124 59 89 134 125
147 117 116 141 148 85 124 137
125 158 102 101 106 157 119 108
158 96 165 156 102 114 119 122
135 112 162 138 114 104 99 118
138 92 101 119 138 74 121 147
107 97 117 112 89 122 78 127
86 143 136 127 104 113 114 126
123 84 174 113 96 119 128 142
90 128 156 95 111 127 90 81
80 102 115 109 175 146 102 94
100 145 152 110 145 102 96 95
90 116 98 131 166 144 116 142
99 116 87 126 163 132 118 124
118 121 97 105 118 103 102 112
174 144 123 110 128 106 96 115
118 97 118 136 130 89 136 111
117 129 159 114 111 153 101 146
00000000: 9882 969d 9794 842a 3d56 704e 8652 8283
00000010: 5683 9047 7850 2d42 7e63 928a 4a5c 7e5c
00000020: 9578 9b36 5833 7179 5b8b 6476 8b9e 288a
00000030: 7f4b 875d 7c3a 9a5b 839a 878e 6383 3a61
00000040: 3d98 8584 877d 798e a055 7d80 5089 842f
00000050: 4480 5190 787c 8e9b 7e23 7b47 a189 4c7b
00000060: a58f 519b 803d 4da9 8b81 608f 7a52 5887
00000070: 5d5c 8a7c 3b59 867d 9375 748d 9455 7c89
00000080: 7d9e 6665 6a9d 776c 9e60 a59c 6672 777a
00000090: 8770 a28a 7268 6376 8a5c 6577 8a4a 7993
000000a0: 6b61 7570 597a 4e7f 568f 887f 6871 727e
000000b0: 7b54 ae71 6077 808e 5a80 9c5f 6f7f 5a51
000000c0: 5066 736d af92 665e 6491 986e 9166 605f
000000d0: 5a74 6283 a690 748e 6374 577e a384 767c
000000e0: 7679 6169 7667 6670 ae90 7b6e 806a 6073
000000f0: 7661 7688 8259 886f 7581 9f72 6f99 6592

gate_lstm.weight_quantized u1 [128, 128]
149 120 141 160 93 116 99 91
119 110 76 95 102 138 109 140
107 141 109 123 63 82 90 114
141 80 83 123 91 139 136 102
135 145 121 90 190 127 114 166
130 110 162 76 104 134 127 104
121 166 153 134 88 140 121 100
96 154 157 60 149 196 106 123
154 200 126 59 186 73 106 168
104 67 186 97 86 154 106 145
101 160 49 140 100 154 49 155
113 180 211 138 148 94 119 169
55 113 215 198 57 140 86 169
120 86 124 171 84 88 109 141
172 112 172 219 196 117 152 134
196 170 105 87 104 208 51 207
125 152 100 132 145 146 136 174
134 114 138 117 101 125 148 115
132 129 110 152 126 143 164 168
115 151 177 160 153 124 135 135
134 154 145 152 144 129 100 170
138 148 134 131 139 134 135 124
150 105 162 145 126 167 113 100
114 125 97 151 132 150 131 145
86 108 114 106 177 89 130 100
102 89 153 95 103 85 125 146
89 107 86 115 104 141 109 193
119 121 140 115 85 116 91 147
94 120 141 129 110 127 88 160
126 96 96 109 117 94 91 119
135 101 174 160 128 114 128 129
109 140 89 130 112 173 111 115
00000000: 9578 8da0 5d74 635b 776e 4c5f 668a 6d8c
00000010: 6b8d 6d7b 3f52 5a72 8d50 537b 5b8b 8866
00000020: 8791 795a be7f 72a6 826e a24c 6886 7f68
00000030: 79a6 9986 588c 7964 609a 9d3c 95c4 6a7b
00000040: 9ac8 7e3b ba49 6aa8 6843 ba61 569a 6a91
00000050: 65a0 318c 649a 319b 71b4 d38a 945e 77a9
00000060: 3771 d7c6 398c 56a9 7856 7cab 5458 6d8d
00000070: ac70 acdb c475 9886 c4aa 6957 68d0 33cf
00000080: 7d98 6484 9192 88ae 8672 8a75 657d 9473
00000090: 8481 6e98 7e8f a4a8 7397 b1a0 997c 8787
000000a0: 869a 9198 9081 64aa 8a94 8683 8b86 877c
000000b0: 9669 a291 7ea7 7164 727d 6197 8496 8391
000000c0: 566c 726a b159 8264 6659 995f 6755 7d92
000000d0: 596b 5673 688d 6dc1 7779 8c73 5574 5b93
000000e0: 5e78 8d81 6e7f 58a0 7e60 606d 755e 5b77
000000f0: 8765 aea0 8072 8081 6d8c 5982 70ad 6f73

fc.weight_quantized u1 [256, 4]
149 89 119 95 144 138 174 94
168 126 68 157 178 100 115 123
170 130 63 116 152 115 160 87
147 109 116 146 74 178 96 166
63 131 170 107 93 156 92 155
108 160 175 102 71 143 176 104
138 97 72 120 71 172 123 146
160 114 135 151 181 117 99 143
73 118 193 81 175 96 123 114
124 113 176 68 84 141 190 122
172 136 94 110 66 156 146 175
91 168 83 182 49 149 150 120
140 120 167 123 103 175 89 147
148 121 75 150 158 100 106 123
53 145 158 131 93 163 102 174
124 96 104 116 65 157 172 97
179 115 107 131 165 145 70 128
176 115 120 118 75 160 124 168
124 168 78 164 55 169 170 126
132 153 64 159 134 138 144 119
136 150 67 165 165 76 144 95
79 163 193 112 110 102 143 120
171 89 96 132 176 89 81 128
71 173 172 165 186 109 128 137
154 113 108 109 79 171 83 161
125 108 177 79 68 142 117 152
159 175 103 156 62 146 105 129
172 111 108 104 58 165 158 136
165 130 75 137 170 96 110 120
114 123 162 81 163 109 83 147
69 145 87 140 170 124 120 103
63 137 141 172 72 156 102 159
00000000: 9559 775f 908a ae5e a87e 449d b264 737b
00000010: aa82 3f74 9873 a057 936d 7492 4ab2 60a6
00000020: 3f83 aa6b 5d9c 5c9b 6ca0 af66 478f b068
00000030: 8a61 4878 47ac 7b92 a072 8797 b575 638f
00000040: 4976 c151 af60 7b72 7c71 b044 548d be7a
00000050: ac88 5e6e 429c 92af 5ba8 53b6 3195 9678
00000060: 8c78 a77b 67af 5993 9479 4b96 9e64 6a7b
00000070: 3591 9e83 5da3 66ae 7c60 6874 419d ac61
00000080: b373 6b83 a591 4680 b073 7876 4ba0 7ca8
00000090: 7ca8 4ea4 37a9 aa7e 8499 409f 868a 9077
000000a0: 8896 43a5 a54c 905f 4fa3 c170 6e66 8f78
000000b0: ab59 6084 b059 5180 47ad aca5 ba6d 8089
000000c0: 9a71 6c6d 4fab 53a1 7d6c b14f 448e 7598
000000d0: 9faf 679c 3e92 6981 ac6f 6c68 3aa5 9e88
000000e0: a582 4b89 aa60 6e78 727b a251 a36d 5393
000000f0: 4591 578c aa7c 7867 3f89 8dac 489c 669f
